model.pth (torch, 12020 bytes, 5 tensors)

fc1.weight f4 [64, 4]
000000 40 0f 91 bd 48 57 ff 3e 80 4f 37 be d4 c4 9b be
       -0.07082987 0.49871278 -0.1790142 -0.30423605
000010 a8 93 9f be 48 19 87 3d 20 7b ee be 40 7a 45 bc
       -0.3116734 0.06596619 -0.46578312 -0.012053072
000020 52 a9 a8 3e d8 73 57 be e0 ed 63 bd fa 6e fc be
       0.3294168 -0.21040285 -0.055646777 -0.49303418
000030 28 9a 4b be 38 d0 81 bd 3e fc e7 be 78 ee ec bd
       -0.19883025 -0.06338543 -0.45309633 -0.11568922
000040 60 65 56 be 94 89 c0 be b0 cb db 3d 10 1a 1e be
       -0.20937109 -0.37604964 0.1073221 -0.1543963
000050 10 34 0f be 7c 24 4f 3e d6 e2 b7 3e 7e c1 a1 be
       -0.13984704 0.20228761 0.3591525 -0.31592935
000060 00 4c 6f 3e c8 1b b5 3e dc d5 76 3e f2 a3 e6 be
       0.23368835 0.35372758 0.24105018 -0.45046955
000070 6f d3 2e 40 0d f7 54 40 bb 5a c5 40 1a 00 52 40
       2.731655 3.3275788 6.1673255 3.2812562
000080 40 5d 27 40 a0 6c 6a 40 ed 2d b5 40 8c 68 61 40
       2.6150665 3.66288 5.661856 3.522006
000090 55 c6 5e 40 91 88 45 40 72 c9 b5 40 f0 9a 5a 40
       3.4808552 3.0864604 5.6808405 3.4157066
0000a0 40 53 a3 bd 68 ec a1 3e a8 af b0 be 58 fd 9f bd
       -0.07974863 0.31625676 -0.34509015 -0.07811993
0000b0 5c 7a 37 40 63 6c 53 40 e2 b8 b6 40 fc d9 66 40
       2.8668432 3.3034904 5.7100687 3.6070547
0000c0 60 8e dd be fc 05 b0 be 10 32 b9 3d bc 79 f0 be
       -0.43272686 -0.34379566 0.09042752 -0.46967876
0000d0 94 31 f2 3e 00 76 ee bc 6c 7e 8e be e6 b3 86 be
       0.4730345 -0.029109001 -0.27830827 -0.26309127
0000e0 1e 2f c0 3e c8 ea 44 3e ba dd 90 3e 06 2e 8f be
       0.37535948 0.19230187 0.28294164 -0.279648
0000f0 10 05 18 bd e4 9d 69 3e 00 7f 35 3d b8 6e 5b be
       -0.037114203 0.22814137 0.04431057 -0.21428955
000100 90 43 3a bd 76 cc df be a0 87 81 3e 60 b5 9d bd
       -0.04547459 -0.4371068 0.25298786 -0.0770061
000110 b1 e5 33 40 21 8f 48 40 f9 92 c9 40 bb de 51 40
       2.8108943 3.133736 6.299191 3.2792194
000120 2a 9f 3d 40 9c 13 49 40 00 a1 c5 40 db 81 4e 40
       2.9628396 3.1418219 6.1759033 3.2266757
000130 ed c0 51 40 83 00 43 40 6f e3 c2 40 b5 ef 5e 40
       3.2774003 3.0469062 6.090263 3.4833806
000140 00 37 5f 3d 80 ca ef 3e c0 46 89 3c 0a 8c fc be
       0.05449581 0.46834183 0.016757369 -0.4932559
000150 0b c5 31 40 05 2f 4d 40 b7 af c7 40 ab 74 5a 40
       2.7776515 3.2059948 6.2401996 3.4133708
000160 ce c9 c1 be 18 91 d4 3e 00 c0 02 3b 28 c7 ef bd
       -0.37849277 0.41516948 0.0019950867 -0.11707908
000170 e8 53 26 3e e0 58 31 3d 80 b4 42 be bc b0 cb be
       0.16242945 0.04329765 -0.19014168 -0.39783275
000180 c5 d8 66 40 c1 b0 6c 40 47 24 b4 40 d1 af 60 40
       3.6069806 3.6982882 5.6294284 3.510731
000190 2c d7 4c 40 d9 f5 4b 40 fd dd b8 40 30 52 54 40
       3.200633 3.1868804 5.777098 3.3175163
0001a0 ac f7 b6 3e 7a 59 e6 be 38 e1 e5 bd 80 0c 80 be
       0.35735834 -0.4499014 -0.11224598 -0.25009537
0001b0 40 60 eb be 3c 2b fe be c0 ba 35 3c 36 08 83 be
       -0.4597187 -0.4964236 0.011091888 -0.25592202
0001c0 1e 39 3f 40 c7 f1 30 40 56 24 c8 40 9b 18 50 40
       2.9878612 2.764757 6.2544355 3.2515018
0001d0 8c db 57 40 e0 93 5b 40 7c 2a cc 40 5c 50 62 40
       3.372775 3.4309006 6.380186 3.5361547
0001e0 68 e3 88 be ec 6e 0b be 92 1f 93 3e 5c cd 44 be
       -0.26735997 -0.13616532 0.28735024 -0.19218963
0001f0 40 d2 77 3c a4 e2 b5 3e 50 b1 88 3d c8 aa 3b be
       0.015125811 0.35524476 0.06674445 -0.18326867
000200 52 71 8e 3e 56 82 c0 be 98 de 68 3e c4 fe 2e be
       0.27820832 -0.37599438 0.22741163 -0.17089373
000210 74 63 62 40 50 2a 5d 40 81 90 cf 40 91 42 5f 40
       3.5373201 3.4557076 6.4863896 3.488438
000220 ac d6 06 3e 54 f8 73 be 38 86 53 3e e2 5a 92 be
       0.13167828 -0.23825198 0.20656669 -0.28584963
000230 38 c3 d4 bd 0e ee 87 3e c4 d9 e3 3e 2c 54 08 be
       -0.103887975 0.2654881 0.4450208 -0.13313359
000240 48 74 8c bd 3c 83 bc 3e c6 3f a0 be e6 da cf be
       -0.068581164 0.36818874 -0.31298655 -0.40596694
000250 b8 14 92 3d 78 f5 f1 3e 0c ea 40 be 24 d1 90 be
       0.07132858 0.4725759 -0.18839282 -0.28284562
000260 39 18 2b 40 e3 2a 68 40 63 c3 c6 40 4c 8b 6a 40
       2.6733534 3.6276176 6.211351 3.664752
000270 22 2e b1 be 34 5a de 3e 6e 04 b0 3e c6 b5 93 be
       -0.3460551 0.43428195 0.3437838 -0.2884962
000280 50 eb eb bd 00 b0 75 bc 70 cd 2e 3d 20 a2 b5 bc
       -0.11519492 -0.014995575 0.04267639 -0.022172034
000290 24 ce 3b 3e 08 0c ef 3e 22 58 a5 3e 14 fb f6 be
       0.18340355 0.46688867 0.32293802 -0.48238432
0002a0 fb 08 43 40 ad 8b 5e 40 23 5a c9 40 0d b0 4f 40
       3.0474231 3.4772751 6.292253 3.2451203
0002b0 40 a6 ce 3e 3a 68 9b 3e a0 8d d8 bd e0 8c 22 be
       0.40361214 0.30352956 -0.10573888 -0.15874052
0002c0 41 c8 51 40 40 a9 41 40 51 96 c4 40 89 4b 55 40
       3.2778475 3.0259552 6.143349 3.3327353
0002d0 13 ff 4b 40 fe f9 4c 40 2d a2 d1 40 70 4c 59 40
       3.1874435 3.2027583 6.551047 3.3952904
0002e0 d0 ae 87 bd 3c 70 fd 3e d2 d1 d6 3e 80 e6 08 be
       -0.0662514 0.4949969 0.41956955 -0.13369179
0002f0 40 0f 5b 40 a4 fd 4a 40 07 72 cb 40 a3 30 5a 40
       3.4228058 3.171731 6.3576694 3.4092185
000300 c8 04 60 3e 40 60 66 bd be 09 92 3e 44 8d b2 be
       0.21876824 -0.056244135 0.28523058 -0.34873402
000310 6c 1e d4 3e fe 5d a2 3e b0 3a 8c 3e 34 de e8 be
       0.4142946 0.31712335 0.27388525 -0.45482028
000320 10 a8 40 be 30 94 04 be 30 44 ee bd d0 14 f8 be
       -0.18814111 -0.12947154 -0.116340995 -0.4845338
000330 74 d1 7e 3e 12 ae fc be 08 6e ac bd 20 d2 6b be
       0.24884588 -0.49351555 -0.08419424 -0.23029375
000340 00 c1 f8 3e 3e 29 d2 3e 48 72 ad be 20 22 d3 bc
       0.48584747 0.4104709 -0.33876252 -0.025773108
000350 76 08 34 40 0e d3 66 40 b5 b9 b4 40 9b 9d 5d 40
       2.8130164 3.6066318 5.6476693 3.4627445
000360 fd 19 36 40 63 9e 47 40 23 89 d0 40 16 98 57 40
       2.8453362 3.1190422 6.5167403 3.3686576
000370 8c 4f 04 3e 80 84 8c bc 80 6e 7f bd e4 51 e7 be
       0.1292097 -0.017153025 -0.06236124 -0.45179665
000380 f0 14 c9 3e b0 ca 30 bd 58 7b a0 3e 7e 86 b3 be
       0.39273787 -0.043162048 0.31344104 -0.35063547
000390 14 e1 24 be d0 91 9c bd 18 15 3b 3e 38 6a bf be
       -0.16101485 -0.07644999 0.18269765 -0.37385726
0003a0 c4 d7 30 40 3d 4d 30 40 03 d7 c9 40 4b 58 5b 40
       2.7631693 2.7547143 6.3074965 3.427264
0003b0 15 63 53 40 3f 1f 6d 40 4a 39 c8 40 b2 6d 59 40
       3.3029225 3.705032 6.2569933 3.3973203
0003c0 d6 e8 8c 3e 78 89 91 3d d8 70 37 be 06 d5 c2 be
       0.2752139 0.07106298 -0.1791414 -0.3805315
0003d0 13 83 2a 40 d3 44 51 40 5e 77 c2 40 22 d9 5e 40
       2.6642501 3.2698257 6.077071 3.4820027
0003e0 f5 92 37 40 39 5a 41 40 49 2a ba 40 c2 5d 60 40
       2.8683445 3.0211318 5.817662 3.5057225
0003f0 20 a1 0e bd 80 c7 b0 3e b8 66 f3 bd 58 9d ce be
       -0.03482163 0.34527206 -0.118848264 -0.4035442

fc1.bias f4 [64]
000000 12 3c ee be 80 3a d9 be 80 19 d5 3d e0 a0 1d bd
       -0.46530205 -0.42427444 0.10405254 -0.0384835
000010 10 43 99 3d fa 9e 88 be 3e bd f9 be b9 24 4d 40
       0.07483494 -0.2668379 -0.48777193 3.2053664
000020 dd 92 40 40 69 c3 56 40 28 f7 9a 3d 78 f6 40 40
       3.0089638 3.355677 0.075666726 3.0150433
000030 28 a3 8d 3e 4c 4b cc be 14 24 fa 3e f0 57 bd 3d
       0.2766354 -0.39901197 0.4885565 0.09245288
000040 e0 ff 73 bd 14 11 5e 40 ee c5 47 40 14 64 2a 40
       -0.059570193 3.4697924 3.1214557 2.6623583
000050 18 40 f5 3e 22 bf 39 40 b0 00 cd 3d 48 5a 4f 3e
       0.47900462 2.9022908 0.10009897 0.20249283
000060 a9 9b 40 40 40 0b 47 40 8c 44 27 be a0 05 43 bd
       3.0095007 3.1100616 -0.16334742 -0.047612786
000070 30 33 4a 40 77 c1 30 40 5c 8d 82 3e 04 ad 6b be
       3.1593742 2.7618082 0.25498474 -0.23015219
000080 a8 ac ad 3e 45 33 3d 40 1a df ac 3e c8 8a 0c be
       0.3392079 2.9562542 0.33763963 -0.13724816
000090 00 01 e1 3d 18 17 a3 3d 1b 87 5b 40 00 10 7d 3e
       0.10986519 0.07963389 3.4301212 0.24713135
0000a0 00 bd e0 bd 00 04 5f 3b e7 17 36 40 70 77 a1 be
       -0.10973549 0.0034029484 2.845209 -0.31536436
0000b0 0e bd 66 40 ea e8 51 40 7c 24 ed be fa 95 41 40
       3.605289 3.279841 -0.46316898 3.0247788
0000c0 f8 d3 d6 be 10 07 50 3d 64 bc 2e be 54 96 aa 3e
       -0.41958594 0.050787985 -0.17064053 0.33317816
0000d0 30 0c a0 be 88 02 31 40 c0 61 6b 40 4c 0d ca be
       -0.31259298 2.7657795 3.6778412 -0.3946327
0000e0 54 c8 16 3e b4 ee 67 be 08 fd 32 40 c0 0e 31 40
       0.14724857 -0.22649652 2.7966938 2.7665253
0000f0 94 b6 1e be ab 1f 38 40 d1 22 5f 40 98 c3 c6 bd
       -0.15499336 2.8769329 3.4865 -0.09705275

fc2.weight f4 [32, 64]
000000 2e 76 8d 3d 20 64 0a 3c a4 c1 5e 3d 60 18 e7 3d
       0.069073066 0.008446723 0.05438389 0.11283946
000010 3c 96 82 3d f4 c2 08 3d ec 17 ec 3d 14 37 df bd
       0.06376311 0.033389047 0.11528 -0.10899177
000020 81 1d 32 be 0a 7e 00 be 30 b2 62 bd b2 ce 19 bd
       -0.17394067 -0.1254808 -0.055345714 -0.037550636
000030 88 11 ad 3d 64 9b 1e bd 68 f6 b1 3d 10 41 5e 3d
       0.084506094 -0.03872241 0.086895764 0.054261267
000040 ba c6 d9 bd 6e 33 4b 3d 55 69 a4 3c 46 f0 82 bd
       -0.10633607 0.049609594 0.020069757 -0.06393485
000050 c4 02 cc 3d 04 c7 0d 3d 90 6b 0a 3c fa 39 b6 bd
       0.09961465 0.034613624 0.008448496 -0.08897777
000060 32 02 41 bd e9 e0 55 3d a8 cb ac bc 90 e1 49 3d
       -0.047121234 0.052216444 -0.021093205 0.04928738
000070 8a 8f c4 bd e6 92 04 bc 3c 4f d2 bd 60 5d e0 bd
       -0.095976904 -0.008091664 -0.10269019 -0.1095531
000080 5a 67 b3 bd 08 8a 82 bd dc 7a 1f bd a0 76 11 3c
       -0.08759947 -0.063739836 -0.038935527 0.00887838
000090 98 76 50 3d 78 c9 51 bd c5 54 11 be 7c d8 fd 3d
       0.05089435 -0.051217526 -0.14192493 0.12394807
0000a0 f2 2a ac 3d 10 85 f3 3d 7d cf 8d 3d f8 c3 db bd
       0.08406629 0.11890614 0.06924341 -0.107307374
0000b0 d9 42 60 3d 31 ab 96 bd 00 02 85 3b 02 c7 55 3c
       0.05475125 -0.07356871 0.0040590763 0.013047935
0000c0 7a 0b 85 bd 12 7f d4 bd 00 62 a9 3c fc 0f 33 bd
       -0.064963296 -0.10375799 0.020676613 -0.043716416
0000d0 ae ef f8 bd fc 30 15 be a5 ca b8 bd 1a 78 ce bd
       -0.1215509 -0.14569467 -0.090230264 -0.10081501
0000e0 40 01 8d bb d0 41 34 bd f1 2b d1 bd c6 33 66 3d
       -0.0043031275 -0.044008076 -0.10213459 0.05620172
0000f0 54 af 52 bd 63 ba a4 bd 4a b5 61 3d 5c 0f c2 3d
       -0.051436737 -0.08043363 0.05510453 0.09475586
000100 9c ba ef bd 94 ee 07 bd f8 cd 97 3d 90 dd c1 3d
       -0.11705515 -0.03318651 0.07412332 0.09466088
000110 30 61 3b bc 00 e3 a3 ba b6 64 8e 3d c2 96 be bd
       -0.0114367455 -0.0012503564 0.06952803 -0.093060985
000120 3f 57 07 be 2b 4b 63 bd f8 79 37 bd 3a cd 8b 3c
       -0.13216875 -0.055491608 -0.044794053 0.017065633
000130 40 72 15 3b e0 f0 37 3c 4a 6f a7 3d 70 bd 8a bd
       0.0022803694 0.011226863 0.081755236 -0.067744136
000140 c4 95 3f bd 43 4d 07 be 65 00 ee bd f8 66 5a 3c
       -0.046773687 -0.13213067 -0.11621169 0.013330214
000150 10 37 be 3c b4 ea 1d be 08 13 ba 3c 52 ca cd bd
       0.023219615 -0.15421563 0.022714153 -0.10048355
000160 9f 5e c3 bd 2b 98 e2 bd 30 f9 a3 3c 8c e1 52 bd
       -0.09539532 -0.1106418 0.020016283 -0.05148463
000170 88 39 1e be 62 14 24 3d da dc d9 3d f8 5b be bd
       -0.15451634 0.0400585 0.10637827 -0.092948854
000180 60 de df 3b 94 4c 28 be 9c 31 42 bd 6e 06 f9 bd
       0.006831929 -0.16435462 -0.047410592 -0.121594295
000190 f0 9c 7e 3d 10 0f 0c 3c 94 58 76 bd 6e 8a 96 bd
       0.062161386 0.008548513 -0.06014307 -0.07350622
0001a0 f6 c2 8e bd 9e 96 f2 bd d2 cb 53 be e8 19 d6 3d
       -0.069707796 -0.11845134 -0.2068322 0.1045416
0001b0 1d 98 28 be d2 5c bf bd d8 f3 c2 3c 05 ac 7f 39
       -0.16464277 -0.09343876 0.023797914 0.00024382777
0001c0 6e f1 85 3d a4 55 1c 3d 4e 13 e1 bd 90 bb b7 3d
       0.0654019 0.03816761 -0.1099001 0.089713216
0001d0 80 00 55 bb c3 7b 05 be ac c1 3c be 12 b2 9c 3d
       -0.0032501519 -0.13035493 -0.18433255 0.07651152
0001e0 e0 52 b6 3b 86 df 97 bd 8b eb da 3c a1 ec a5 bd
       0.0055640787 -0.074156806 0.026723644 -0.08101774
0001f0 e4 b7 81 bd fe 80 cc bc 55 67 57 bc 00 ae 04 ba
       -0.063339025 -0.024963852 -0.013147195 -0.00050613284
000200 58 1f c6 bc 0e 82 80 bd a8 22 3f 3d bc 68 9e 3d
       -0.024184868 -0.06274806 0.04666391 0.0773482
000210 28 d9 44 bd 4c 94 7f 3d aa a7 98 bd 50 5c b5 bd
       -0.04805866 0.062397286 -0.074538544 -0.08855498
000220 ce d1 d2 3d 10 b0 b5 bd c2 59 e3 3d 84 45 24 3d
       0.10293923 -0.08871472 0.11101104 0.040105358
000230 b4 3c e7 3d 0c ff 0a bd 0e 36 9f bd 40 4d c0 bd
       0.11290875 -0.033934638 -0.07773982 -0.09389734
000240 fe d0 ce 3d 60 5f 7e 3c d0 72 bb 3d 02 77 ef 3d
       0.10098456 0.015525669 0.09152758 0.11692621
000250 ca 04 b1 3d 2c 26 4e bd c0 78 a5 3b 3c 24 21 bd
       0.086434916 -0.050329372 0.005049795 -0.039341196
000260 7c e1 8a bd 4c 84 8b bd a8 40 6f bd 94 05 1b 3d
       -0.06781289 -0.06812343 -0.05841127 0.037847117
000270 f4 38 34 bd 92 39 f6 bd 10 8f 16 3c bc 2c a2 bd
       -0.043999627 -0.120226994 0.009189382 -0.07918689
000280 d8 c9 0a bd e8 50 9a bc dc 10 9f 3d f4 65 46 3d
       -0.0338839 -0.018837407 0.077668875 0.048437074
000290 08 20 28 3d 3e 09 cf bd b6 04 84 bd f4 ad 22 bd
       0.041046172 -0.10109185 -0.06446211 -0.039716676
0002a0 90 7d da bd 40 1e de bc 14 0b 07 3d 00 00 35 3b
       -0.106684804 -0.027114034 0.03296955 0.0027618408
0002b0 48 a1 fb bd 7e ae 9f bd a4 f7 34 3d 18 45 0a 3d
       -0.12286621 -0.077969536 0.04418148 0.0337573
0002c0 14 91 86 3d 00 02 b0 3a 00 a1 aa bd 66 c5 c7 bd
       0.0657064 0.001342833 -0.083314896 -0.09754448
0002d0 f4 96 e3 bd 24 c2 35 bd c2 68 91 bd 94 83 8e 3d
       -0.111127764 -0.0443746 -0.07100059 0.0695869
0002e0 74 4d 79 3d b6 57 c9 3d cc bc ae 3d 5e a1 8d bd
       0.06086488 0.09831183 0.08532104 -0.06915544
0002f0 bc 7b 2f bd b4 d2 f6 bd 42 d7 d0 bd 70 b5 5d 3d
       -0.04284261 -0.12051907 -0.10197307 0.05412811
000300 c2 75 a9 3d c0 75 e4 3b 00 2c 99 39 62 1b 9e bd
       0.08274414 0.0069720447 0.00029215217 -0.077200666
000310 f0 25 3f 3d c0 7b 5c 3c c0 8d d9 3c cb ad 49 40
       0.04666704 0.013457239 0.02655685 3.1512325
000320 32 b1 49 40 eb 57 4e 40 dc 25 fc bd 7c fb 3f 40
       3.1514401 3.224116 -0.123119086 2.9997244
000330 5a 5d 98 3d de e7 b8 3d 48 f3 d1 bc 06 a2 bc 3d
       0.074396804 0.090286 -0.0256287 0.09210591
000340 c0 d8 ac 3b eb 8d 48 40 53 94 4f 40 f3 de 46 40
       0.005274862 3.133662 3.243428 3.1073577
000350 b0 34 0d 3d 1d aa 4c 40 40 db 36 bb 90 d9 97 3c
       0.034474075 3.197883 -0.002790168 0.01853636
000360 de 4c 46 40 9a 24 4b 40 e0 83 5e 3d 18 72 55 3d
       3.0984416 3.174109 0.054324985 0.05211076
000370 8e 9c 4d 40 18 b4 4a 40 78 f4 da bd 84 89 f3 bd
       3.2126803 3.167242 -0.1069116 -0.118914634
000380 9a 99 af 3d b4 dd 50 40 40 bc b2 3b 08 61 fd bd
       0.08574219 3.2635317 0.00545457 -0.12372023
000390 40 2d 2c bb f0 de ed bd 44 12 48 40 2e 32 d0 3d
       -0.0026272088 -0.116147876 3.1261148 0.10165821
0003a0 00 60 9d 3b 6c fd 15 bd 83 9c 4b 40 a0 a7 e5 bb
       0.004802704 -0.036618635 3.1814277 -0.007008508
0003b0 c5 70 52 40 c3 a3 4b 40 46 60 84 bd 49 49 45 40
       3.288133 3.1818702 -0.06463675 3.082598
0003c0 54 69 d7 3d 00 fb 5d bb 00 e5 3d 3a 5a e7 c2 bd
       0.105181366 -0.0033871531 0.00072439015 -0.09516783
0003d0 48 8c 87 3d 46 cd 50 40 5c 97 49 40 9c 47 73 bd
       0.066185534 3.262529 3.1498632 -0.059394464
0003e0 d6 0f cb 3d 28 fb bb 3c 48 85 4f 40 34 f7 43 40
       0.0991513 0.02294691 3.2425098 3.061963
0003f0 2e ba b3 bd 3a f7 4f 40 2f 2e 4f 40 e8 06 83 bc
       -0.08775745 3.2494645 3.2371938 -0.015994504

fc2.bias f4 [32]
000000 73 28 c2 bc fe b5 ff bd 80 8b d0 ba c5 ce 25 40
       -0.023700928 -0.12485884 -0.0015910715 2.5907452
000010 c0 45 7f 3c 44 8d 2c bd b6 c4 ea 3d 1b 17 25 40
       0.015580595 -0.04212691 0.11463301 2.5795352
000020 a5 46 9d bc c6 b6 bf bd 4a 84 9f 3d b4 59 41 3d
       -0.019198725 -0.09361033 0.07788904 0.04720469
000030 f5 63 10 be 92 c4 ff 3d ea 13 90 3c 7c b2 8a bc
       -0.1410063 0.12488665 0.01758762 -0.016930811
000040 c6 25 af 3d 2a bb 2d 3c 7a 71 1b bd 40 80 26 40
       0.085521266 0.010603705 -0.037950017 2.6015778
000050 91 cc b0 bc 7e 26 cd bd d0 68 e9 3d e0 ea 81 3d
       -0.02158192 -0.100171074 0.113969445 0.06343627
000060 d6 c7 a5 bd 5c d8 23 40 d4 7c c4 3d c8 0d 50 be
       -0.08094756 2.5600805 0.095941216 -0.20317757
000070 90 c9 c5 bd 51 38 1d 40 ad dc a5 3c 72 e7 38 3d
       -0.096575856 2.4565623 0.020246828 0.0451426

fc3.weight f4 [1, 32]
000000 68 43 d5 bd ba dd 1d bd 5c f9 9f bd eb 86 52 40
       -0.10413247 -0.038541533 -0.078112334 3.2894847
000010 02 77 94 3d 60 7b c2 bc 7c c5 06 3d ae 48 51 40
       0.072492614 -0.02374047 0.03290318 3.270061
000020 68 4f 57 bb e6 85 91 bd 1b 10 04 3e 1f 89 0d 3e
       -0.0032853726 -0.07105617 0.12896769 0.13821839
000030 c8 b1 7d 3d 00 70 99 ba f9 a6 97 ba d1 5b 3d 3d
       0.061937124 -0.0011706352 -0.0011570147 0.04623014
000040 00 1f ea 3a c7 c8 91 3c 7a 3e 75 3c cf 48 54 40
       0.0017862022 0.017795933 0.014968509 3.316944
000050 7c 58 c4 bc f0 94 c8 3c c0 d3 b0 3c d5 e0 28 be
       -0.023967974 0.024485081 0.021585345 -0.16492017
000060 a6 19 f1 bd 4f 3f 56 40 0a ea 93 3d b7 86 2a bd
       -0.1177247 3.347614 0.07222374 -0.04163238
000070 35 e6 11 bd 48 4a 57 40 e7 82 1c 3d a3 df 12 3d
       -0.035619933 3.3639088 0.038210776 0.035857808
